Deployment/mnist.onnx (onnx, 95962 bytes, 4 tensors)

module.1.weight f4 [30, 784]
0	0xbcddd569	-0.027079301
1	0xbcf318c2	-0.029674891
2	0xbce118b7	-0.027477605
3	0xbc4ab1e7	-0.012371517
4	0xbcd551b5	-0.026039938
5	0x3d042736	0.032263957
6	0x3cbe660c	0.02324202
7	0xbcef3580	-0.029200315
8	0x3cc2b771	0.023769112
9	0x3cf46343	0.029832488
10	0x3cd1c48d	0.025606418
11	0xbb9504b7	-0.004547681
12	0xb8c13c56	-9.2141956e-05
13	0x3d0f0c38	0.034923762
14	0xbd04d395	-0.032428343
15	0xbb93c443	-0.00450948
16	0xbc292996	-0.010324856
17	0xbc8b8760	-0.017032325
18	0xbb411b03	-0.0029465563
19	0xbc9eff8d	-0.019408965
20	0xbd032c26	-0.032024525
21	0x3bf88b3f	0.007584959
22	0x3bc6e44f	0.006069697
23	0xba903417	-0.0011001852
24	0xbc2f45cd	-0.010697794
25	0xbc004c35	-0.007830669
26	0xbc28a24a	-0.010292599
27	0xbcde7ec3	-0.027160054
28	0x3c909237	0.017647846
29	0xbcd38b65	-0.025823304
30	0xbc2c24dd	-0.010506836
31	0x3c5e6451	0.013573722
32	0x3cc2a906	0.023762237
33	0xbcbf7219	-0.023369836
34	0x3ce8031e	0.028321799
35	0xbd019cd4	-0.031643704
36	0xbcc0d3ca	-0.023538489
37	0xbd104197	-0.0352188
38	0x3b309aab	0.0026947658
39	0x3cc87303	0.024468904
40	0xbce194a7	-0.027536703
41	0xbc43c3cf	-0.01194854
42	0x3c614b69	0.013750889
43	0xbc1e186b	-0.009649376
44	0x3d0c5a27	0.034265663
45	0xbce685f3	-0.028140044
46	0xbc988760	-0.01861924
47	0x3b13cc33	0.0022552132
48	0xbbe579e3	-0.0070030554
49	0x3bbd1c85	0.005771222
50	0x3ccba389	0.024858253
51	0xbcfbc3da	-0.030733038
52	0x3a844687	0.001009182
53	0xb9f7002d	-0.00047111642
54	0x3c9af714	0.018916644
55	0x3c86c266	0.016450118
56	0xbc3a63bd	-0.0113763185
57	0xbc1ff85f	-0.009763806
58	0x3d0755e5	0.0330409
59	0xbccb8558	-0.024843857
60	0xbb649075	-0.0034876142
61	0x3cb1ed6e	0.02171966
62	0x3ccaa3a3	0.024736231
63	0xbd048737	-0.032355513
64	0xba54ca66	-0.0008117318
65	0xbcbe9557	-0.02326457
66	0x3cacd700	0.021098614
67	0x3c385a4f	0.011252
68	0xbd15e6b7	-0.03659698
69	0xbb641c7d	-0.003480702
70	0xbcaa4509	-0.020784872
71	0xbafabb95	-0.001912939
72	0x3c911c7b	0.017713776
73	0x3ca6419c	0.020294957
74	0xbcd1e749	-0.02562298
75	0xbba9f549	-0.005186711
76	0xbc51bcc3	-0.012801352
77	0x3cfd352e	0.030909147
78	0xba9ad636	-0.0011813107
79	0xbbaed31a	-0.005335224
80	0x3cc8faf9	0.024533736
81	0x3be0bc2a	0.0068583684
82	0x3d1154c6	0.035481237
83	0x3c1df2fe	0.009640453
84	0x3c8b8c13	0.017034566
85	0x3c7cc0f3	0.015426862
86	0x3b5517de	0.0032515447
87	0xbc98b886	-0.018642675
88	0x3cb2e7f7	0.021839125
89	0x3c3e82d0	0.011627868
90	0xbc9a2fd0	-0.018821627
91	0xbcf75cb1	-0.030195566
92	0x3c4b1d94	0.012397189
93	0xbca01570	-0.019541472
94	0x3cb71d2c	0.022352777
95	0x3a91dfd9	0.0011129334
96	0x3c88c24d	0.016694212
97	0x3cbf0127	0.02331598
98	0x3ba42314	0.0050090645
99	0xbd0e1dee	-0.034696512
100	0xbbfd1c59	-0.0077243266
101	0xbba67ebd	-0.0050810263
102	0x3b872b83	0.00412506
103	0xbd38959f	-0.045064565
104	0x3acdff74	0.001571639
105	0xbc58f268	-0.013241388
106	0xbd01c065	-0.031677622
107	0x3c4d1aac	0.012518566
108	0xb99fd961	-0.00030488803
109	0xba157cba	-0.00057024846
110	0x3cf5ea90	0.030019075
111	0x3b61acf5	0.0034435366
112	0xbb0a9d52	-0.00211509
113	0x3b0e8c31	0.002175104
114	0xbc8adff4	-0.016952492
115	0xbd0c9f46	-0.034331582
116	0x3cc5a501	0.024126532
117	0xbd08ecb3	-0.03342886
118	0x3d12a330	0.03580016
119	0xbcc3ea16	-0.023915332
120	0xbd0f902c	-0.035049602
121	0x3c72e919	0.014826083
122	0xbcd63e49	-0.026152747
123	0xbbcd042c	-0.006256601
124	0x3bd22fba	0.006414381
125	0xbc1a2987	-0.009409315
126	0xbb9f4ca1	-0.00486143
127	0x3cc886d2	0.02447835
128	0xbd188d36	-0.037244044
129	0xbd07ef96	-0.03318747
130	0xbd4c6fef	-0.049911436
131	0xbc456797	-0.0120486235
132	0xbd10634d	-0.03525095
133	0xbcf826c5	-0.030291924
134	0xbcc7d960	-0.024395645
135	0x3c6c6ed3	0.014430719
136	0x3cf31a8d	0.029675746
137	0x3cc25bec	0.023725472
138	0x3bb29663	0.0054500564
139	0xbd00b852	-0.03142578
140	0x3cb9a38c	0.022660993
141	0x3d0b156b	0.033955973
142	0x3cc697c2	0.024242286
143	0xbcfe84a3	-0.031069105
144	0xbbc99c12	-0.0061526382
145	0xbce14eb2	-0.027503345
146	0x39c0952d	0.00036732238
147	0x3b095faf	0.0020961573
148	0x3bd2c1a9	0.0064317775
149	0xbc8f223d	-0.01747238
150	0xbb7ec5f5	-0.0038875316
151	0xbab33577	-0.001367255
152	0xbc67bdb5	-0.014144351
153	0xbd23d634	-0.039999202
154	0xbd907d9e	-0.070552096
155	0xbd45e340	-0.048312426
156	0xbdad179e	-0.0845177
157	0xbcc560c6	-0.024093997
158	0xbd95db93	-0.07317271
159	0xbd2431be	-0.0400865
160	0xbc1a7590	-0.009427443
161	0xbcf99b00	-0.030469418
162	0x3d2b36ae	0.041800193
163	0xbb5c6b36	-0.0033633239
164	0x3cf3c6e6	0.029757928
165	0xbb5d41ef	-0.0033761223
166	0xbc8872b3	-0.016656255
167	0x3bb7de93	0.0056112497
168	0xbbad8110	-0.0052949265
169	0xbc9127f6	-0.01771925
170	0xbc02446e	-0.007950885
171	0x3bdb1659	0.0066860137
172	0x3c101ec8	0.008796401
173	0xbbdd97c2	-0.0067624757
174	0xbcc60004	-0.02416993
175	0xbce959f1	-0.02848527
176	0x3c242d98	0.010020636
177	0x3d39c142	0.04535032
178	0x3c4d0fc4	0.012515966
179	0x3d812ad2	0.063069955
180	0x3d22df88	0.039763957
181	0xbb352adf	-0.0027643961
182	0x3d09fcce	0.03368836
183	0xbc8dd1da	-0.01731198
184	0xba1c2b72	-0.00059574016
185	0x3ceaab46	0.028646123
186	0x3cecb194	0.02889327
187	0xbcb21910	-0.021740466
188	0x3c1da958	0.009622894
189	0xbc528348	-0.012848683
190	0x3d660a0f	0.056161936
191	0x3d4c25f7	0.049840894
192	0x3bb63cfd	0.0055614696
193	0x3c71286c	0.01471911
194	0xbcca2deb	-0.024680099
195	0x3bbc2737	0.0057419795
196	0xbbd1f5ad	-0.0064074607
197	0x3c9d869c	0.019229226
198	0x3cf48efb	0.029853335
199	0x3d161c43	0.036648046
200	0x3d029ffa	0.031890847
201	0x3d0ace54	0.033888176
202	0x3cb81983	0.022473102
203	0xbbd160a2	-0.0063896934
204	0xbc609f38	-0.013709836
205	0x3d243735	0.040091712
206	0x3c684862	0.014177414
207	0x3d46d670	0.048544347
208	0x3d43ef36	0.04783555
209	0x3d9fc801	0.078018196
210	0x3dcee99f	0.101031534
211	0x3ded13da	0.11576052
212	0x3d9c0164	0.07617453
213	0x3d96f1d9	0.073703475
214	0x3d02ee45	0.031965513
215	0x3cb94f01	0.02262068
216	0x3d79ed3c	0.06101726
217	0x3cd40522	0.025881354
218	0x3d34adfc	0.044111237
219	0x3ceadae3	0.028668826
220	0x3c847da7	0.016173197
221	0xbc1d8f91	-0.009616748
222	0xbc19616c	-0.009361606
223	0x3cb8333a	0.022485364
224	0xbc4cd823	-0.012502703
225	0xbcab0a40	-0.020878911
226	0xbcd82a14	-0.026387252
227	0x3c51be38	0.012801699
228	0x3bfaa751	0.00764934
229	0x3c86d329	0.01645811
230	0xbb97d96c	-0.004634073
231	0x3b6cb0f7	0.0036116221
232	0x3cb04abc	0.021520011
233	0x3ce3b7eb	0.02779766
234	0x3d9094d5	0.070596375
235	0x3dc55e9a	0.096371844
236	0x3dc38b44	0.09548047
237	0x3da3129c	0.07962534
238	0x3df88124	0.121340066
239	0x3de3abe4	0.1111677
240	0x3e23a7a8	0.15981925
241	0x3e0157dd	0.12631173
242	0x3de45e64	0.11150816
243	0x3dbab93b	0.09117361
244	0x3dad11f6	0.084506914
245	0x3d570b8f	0.052501258
246	0x3d04f0fb	0.03245638
247	0x3cefe962	0.02928609
248	0x3d559f82	0.05215407
249	0x3afc8a74	0.0019267336
250	0xbc28a30e	-0.0102927815
251	0x3be8d44e	0.007105387
252	0xbd0fc46c	-0.035099432
253	0xbd0290cd	-0.031876374
254	0xbd08a781	-0.03336287
255	0x3cb23023	0.021751469

module.1.bias f4 [30]
0	0x3db55bdd	0.08855412
1	0x3df7ba9d	0.120961405
2	0x3d9d2b97	0.0767433
3	0x3dbd79e7	0.09251767
4	0xba5bf902	-0.0008391292
5	0xbe3be9a8	-0.18350852
6	0x3d811ccb	0.0630432
7	0x3ddb9fe7	0.10723858
8	0x3db1d96e	0.086840495
9	0x3e3e49ee	0.1858289
10	0x3c1ebe55	0.009688933
11	0x3d97e0e7	0.074159436
12	0xbd0272a2	-0.031847604
13	0xbd536cec	-0.051617548
14	0xbd6c6132	-0.05770988
15	0x3de3a841	0.11116076
16	0x3af1d660	0.001845073
17	0x3d79b7d2	0.06096632
18	0x3dae9474	0.08524409
19	0x3da4e80a	0.080520704
20	0x3cc4622d	0.023972595
21	0xbc8bc400	-0.017061234
22	0x3dc5eda3	0.09664466
23	0x3e0fd01c	0.14044231
24	0x3e081fea	0.13293424
25	0xbcc7e3e1	-0.024400653
26	0xbd176f2c	-0.036971256
27	0xbdabf750	-0.083967805
28	0xbcf20975	-0.029545525
29	0x3e0aba82	0.1354771

module.4.weight f4 [10, 30]
0	0x3eb74c16	0.35800236
1	0x3efe86ce	0.49712223
2	0xbe1920ad	-0.14953871
3	0x3f00a646	0.50253713
4	0x3d4cd8e1	0.05001152
5	0x3eb8f5a1	0.361249
6	0xbef16d32	-0.47153622
7	0xbe1148a9	-0.14187874
8	0x3ee10bd1	0.43954328
9	0xbe7b8b5f	-0.24564885
10	0xbe8b8f44	-0.2725774
11	0x3e94d878	0.29071403
12	0xbea9b16a	-0.3314317
13	0x3d1297b3	0.035789203
14	0x3ec2f320	0.38076115
15	0xbdcb6274	-0.09930888
16	0xbe19ed78	-0.15031993
17	0xbe4deae4	-0.20109135
18	0xbf094333	-0.5361816
19	0x3ed3655b	0.41288266
20	0x3cab6cf1	0.02092597
21	0xbeabbed9	-0.33544043
22	0xbc42f5ca	-0.011899421
23	0xbed37637	-0.41301128
24	0xbe5e0ae5	-0.21683843
25	0x3de0691a	0.109575465
26	0xbec9655d	-0.39335147
27	0x3e922345	0.28542534
28	0xbef97c00	-0.48727417
29	0xbefd69a1	-0.4949465
30	0xbed18a15	-0.4092566
31	0xbeb8c9ab	-0.3609136
32	0x3edada91	0.42744878
33	0xbe4c7111	-0.19965006
34	0x3e157365	0.14594801
35	0xbebbd4db	-0.36685833
36	0x3ea73f2b	0.3266538
37	0xbe910024	-0.2832042
38	0xbeb35f17	-0.35033485
39	0x3e825cd4	0.25461447
40	0x3eaf0015	0.3417975
41	0xbf1b9cb6	-0.60785997
42	0x3e9e0983	0.30866632
43	0xbeae9b0f	-0.34102675
44	0xbda733db	-0.081641875
45	0x3efcb95b	0.49360165
46	0xbe38acce	-0.1803467
47	0x3e6564cf	0.22401737
48	0x3d408155	0.04699834
49	0xbea65218	-0.32484508
50	0x3e2d935c	0.16950744
51	0x3ea506a4	0.3223163
52	0xbf0df1a3	-0.55446833
53	0x3ea15a31	0.31514123
54	0x3ed9f469	0.42569283
55	0xbe853323	-0.26015577
56	0x3e432bb6	0.19059643
57	0xbf0c71a8	-0.54860926
58	0x3e684a56	0.22684607
59	0xbe2e7495	-0.1703666
60	0xbeafe568	-0.3435471
61	0xbe8367d9	-0.25665167
62	0x3ed92c5a	0.4241665
63	0x3ed4a30a	0.4153064
64	0x3dec6080	0.115418434
65	0x3e8d1b91	0.27560094
66	0xbe652cac	-0.22380322
67	0xbe479523	-0.19490485
68	0xbda0aeeb	-0.07845863
69	0x3ec037d2	0.37542588
70	0x3ea0a2e4	0.31374276
71	0x3e6d2612	0.23159054
72	0x3d21ceff	0.039504047
73	0x3e78789e	0.24264762
74	0xbe1936b7	-0.14962278
75	0xbdd72345	-0.10504774
76	0xbe23f5ee	-0.16011783
77	0xbdb437a8	-0.08799678
78	0xbeb99a19	-0.3625038
79	0x3eb3b38a	0.35097915
80	0x3b9442b3	0.0045245527
81	0x3ec51c5a	0.38498193
82	0xbe102144	-0.1407519
83	0xbe72ea17	-0.2372211
84	0xbec7b835	-0.39007726
85	0x3eaf623c	0.34254634
86	0x3ec9e467	0.3943207
87	0xbd321772	-0.04347939
88	0x3e1ddb39	0.15415658
89	0xbcc0722b	-0.02349194
90	0x3e9d8b98	0.30770564
91	0x3ed37f0c	0.41307867
92	0x3edf6082	0.43628317
93	0xbced2a2f	-0.028950779
94	0x3e6ea0bb	0.23303501
95	0x3e115b7d	0.14195056
96	0xbe903db9	-0.2817209
97	0x3e3c12f3	0.18366604
98	0xbe18d84b	-0.14926259
99	0xbe361376	-0.17780861
100	0x3e9e0c9f	0.30869004
101	0xbed9e8d3	-0.42560443
102	0x3ecb7509	0.39737728
103	0xbe69bb15	-0.22825272
104	0x3e79967d	0.24373813
105	0xbe5899ff	-0.21152495
106	0x3e18f0c0	0.14935589
107	0xbcd01ca6	-0.025404286
108	0xbe11d1d6	-0.14240202
109	0x3e9c5f9e	0.305417
110	0x3e12c136	0.14331517
111	0x3e16b5a5	0.1471773
112	0xbedff7cd	-0.43743744
113	0xbe670025	-0.22558649
114	0xbe9748fa	-0.29547864
115	0xbe73a09c	-0.23791736
116	0x3e9543a8	0.2915318
117	0x3d893283	0.066990875
118	0x3e40ce6a	0.1882874
119	0x3ecc5bc7	0.3991377
120	0xbdb8d0ea	-0.09024222
121	0xbe7251ff	-0.23664092
122	0x3c3038d2	0.0107557345
123	0xbe6327f3	-0.22183208
124	0xbd45fc79	-0.04833648
125	0xbf07c5e7	-0.5303635
126	0xbb8b5d3e	-0.0042530587
127	0x3f042f85	0.5163501
128	0xbee3c19b	-0.44483647
129	0x3f02d701	0.5110932
130	0xbecf838b	-0.40530047
131	0x3eb82e4c	0.35972822
132	0xbe65efc7	-0.22454749
133	0x3ee60ac5	0.44930092
134	0xbed830e1	-0.42224792
135	0xbcdd1943	-0.026989585
136	0x3dffea33	0.12495842
137	0xbdc14f14	-0.09438911
138	0x3e9c5d16	0.3053977
139	0xbe8e3f84	-0.27782834
140	0xbdf9054c	-0.121592134
141	0xbef2b20d	-0.47401467
142	0x3eb4f2be	0.35341448
143	0x3e35277f	0.17690848
144	0xbe8303dc	-0.25588882
145	0xbeb43db9	-0.3520334
146	0xbeab9481	-0.33511737
147	0x3de1001b	0.10986348
148	0xbe618625	-0.22023828
149	0x3e601ae5	0.2188526
150	0x3ea7ddac	0.3278631
151	0x3ed417af	0.4142432
152	0xbea28aab	-0.3174642
153	0xbda74cb6	-0.08168928
154	0xbdc7e2d5	-0.09760062
155	0xbe4acc5e	-0.19804522
156	0xbe4f9e58	-0.20275247
157	0xbe1ee204	-0.15515906
158	0x3c804ab7	0.015660627
159	0x3ca82277	0.020524247
160	0x3cce115b	0.02515476
161	0x3d4e75df	0.05040538
162	0x3eb29e95	0.34886613
163	0x3e434837	0.19070517
164	0x3ec67c9c	0.38766944
165	0xbe2347ff	-0.15945433
166	0xbe377577	-0.17915903
167	0x3d965c8b	0.0734187
168	0x3c6016c4	0.013677303
169	0x3e8b3353	0.27187595
170	0xbd233ded	-0.03985398
171	0xbea64c6e	-0.32480186
172	0x3dfb19d9	0.122607894
173	0x3ca02eab	0.019553503
174	0x3ecfaf5a	0.4056347
175	0xbe54a0c9	-0.2076446
176	0xbe0724b6	-0.13197598
177	0x3eaa79d5	0.33296075
178	0x3de530e7	0.11190968
179	0xbe316e29	-0.17327179
180	0xbecb6496	-0.39725178
181	0xbe704702	-0.23464587
182	0xbe6a879d	-0.22903295
183	0xbc25dce4	-0.010123465
184	0x3cbdfe93	0.02319268
185	0xbec0c984	-0.37653744
186	0x3e708244	0.23487192
187	0xbeaf9d82	-0.34299856
188	0xbd97fc04	-0.07421115
189	0x3f0e6a35	0.5563081
190	0xbe0fe2da	-0.14051381
191	0x3eb3d513	0.351235
192	0xbe84c331	-0.2593017
193	0xbe2ceec8	-0.16887963
194	0xbe7e67de	-0.2484431
195	0x3f0edd60	0.5580654
196	0x3dc6fac0	0.097157955
197	0x3e157ca3	0.14598326
198	0xbf143713	-0.57896537
199	0x3e4156f0	0.1888082
200	0xbdb7dc92	-0.08977617
201	0xbed002c2	-0.40627104
202	0x3e9904d5	0.298865
203	0xbec2d562	-0.38053423
204	0xbdc666bd	-0.096875645
205	0x3ec5ec80	0.38656998
206	0x3e518da6	0.20464191
207	0x3ec2e6db	0.38066754
208	0x3e65d27a	0.22443572
209	0xbed5a3cb	-0.41726527
210	0x3eadb394	0.3392607
211	0x3e708614	0.23488647
212	0x3e3ea2b5	0.18616755
213	0x3f0453c6	0.5169033
214	0xbe2c693d	-0.1683702
215	0x3cebdb49	0.028791087
216	0x3eb1ed12	0.34751183
217	0x3eff0e45	0.49815574
218	0x3e97975c	0.29607666
219	0xbebd5ad2	-0.36983353
220	0xbe61cda7	-0.22051106
221	0xbe05a377	-0.13050638
222	0xbeb81298	-0.35951686
223	0xbef1f948	-0.472605
224	0xbeb54316	-0.35402745
225	0xbdcc9092	-0.09988512
226	0xbdd5932d	-0.10428462
227	0x3e722143	0.23645501
228	0x3e8a3bbc	0.269987
229	0xbec3596a	-0.38154155
230	0x3d4ee18a	0.05050806
231	0x3e9b0cda	0.30283242
232	0xbd4235ed	-0.04741471
233	0x3e9e214c	0.30884778
234	0xbe99943a	-0.299959
235	0x3ec53f0e	0.3852467
236	0x3cdf6e76	0.027274352
237	0xbf0246ae	-0.508891
238	0xbed255d2	-0.410811
239	0x3ec73052	0.38904053
240	0x3c5ad1fe	0.01335573
241	0xbd0e1d5a	-0.03469596
242	0xbe8adad7	-0.27120087
243	0xbeb91706	-0.36150378
244	0x3d477f90	0.048705637
245	0x3e9583cc	0.29202116
246	0x3ea2868b	0.31743273
247	0xbe556343	-0.20838647
248	0xbe891f65	-0.26781765
249	0xbe951193	-0.2911497
250	0x3e846cc9	0.25864246
251	0x3d4f5b55	0.05062421
252	0x3e92bbf6	0.28659028
253	0x3eacc7b7	0.3374612
254	0x3eb7a004	0.3586427
255	0xbe2efba9	-0.17088188

module.4.bias f4 [10]
0	0xbea5a6c3	-0.32353792
1	0xbd3e26be	-0.046423666
2	0xbeb215be	-0.34782213
3	0xbe85fca0	-0.261693
4	0x3dd626c0	0.1045661
5	0x3d9165a4	0.070994645
6	0x3d1ab24a	0.037767686
7	0xbe09f347	-0.13471709
8	0xbe999315	-0.29995027
9	0xbd135173	-0.035966348
