Training/my_model.pth (torch, 96991 bytes, 4 tensors)

module.1.weight f4 [30, 784]
0	0x3c8f1183	0.017464405
1	0x3d16bfe2	0.036804087
2	0x3bb7e5ff	0.0056121345
3	0x3cf87d53	0.030333197
4	0x3bcf96fa	0.0063351365
5	0xbbad7836	-0.0052938713
6	0x3cdc61b1	0.026902052
7	0x3bf61015	0.0075092413
8	0xbca0306c	-0.01955434
9	0xbc40d773	-0.011770117
10	0xbcf38dc3	-0.029730683
11	0xbc5f3abe	-0.013624845
12	0xbbc99f12	-0.006152996
13	0x3d045cfe	0.032315247
14	0x3c43931b	0.011936928
15	0x3d1501a4	0.036378518
16	0xbcfdd69d	-0.030986125
17	0xbbd4cf98	-0.0064944737
18	0x3ba9f01f	0.0051860954
19	0xbc9905d3	-0.018679535
20	0xbc40fb72	-0.011778699
21	0xbbecbfa4	-0.007224994
22	0xbbe32f69	-0.006933142
23	0x3b1119ad	0.0022140548
24	0xbc436129	-0.01192502
25	0xbcdbb160	-0.026817977
26	0x3ca2d9ad	0.019879187
27	0x3c5838f5	0.013197173
28	0x3cc4df86	0.024032366
29	0x3c71ab4b	0.014750312
30	0xbb45340d	-0.003009084
31	0xbc919aa1	-0.017773928
32	0x3bf69307	0.0075248512
33	0xbc83511f	-0.016029892
34	0x3cc9a044	0.024612553
35	0x3c8f1008	0.017463699
36	0xbc6ce645	-0.014459197
37	0x3c8ec40f	0.017427472
38	0x3cc8f405	0.02453042
39	0xbc912e39	-0.017722236
40	0xbcd72c09	-0.026266115
41	0x3c863622	0.016383234
42	0x3bced65a	0.006312174
43	0xbd118316	-0.035525404
44	0xbccec4c7	-0.025240315
45	0xbc0b7b1a	-0.008513236
46	0xbbeb0043	-0.007171662
47	0xba58d152	-0.0008270937
48	0x3d0ac66c	0.033880636
49	0xbd1cdfe8	-0.03829947
50	0x3cfeab17	0.031087441
51	0x3c1a1f6a	0.009406904
52	0x3c0a1b0f	0.008429303
53	0x3cdf73c4	0.027276881
54	0x3c694f99	0.014240169
55	0xbcf53114	-0.029930629
56	0xbbba7078	-0.005689677
57	0xbc5d7cd7	-0.013518534
58	0x3c29a000	0.010353088
59	0xbcec5c7a	-0.02885269
60	0x3cc99768	0.024608329
61	0xbc43311c	-0.011913564
62	0xbc4678d3	-0.012113768
63	0xbd496099	-0.04916439
64	0xbc904b08	-0.017613903
65	0xba9f8b32	-0.0012172221
66	0xbd85399e	-0.0650513
67	0xbcf63eab	-0.03005918
68	0x3c8101ea	0.015747983
69	0xbce7c8f6	-0.028294068
70	0x3ab0b876	0.0013482708
71	0xbd1db5ab	-0.03850333
72	0xbb4f631c	-0.0031644767
73	0x3c7a0637	0.015260271
74	0x3c8d7455	0.017267385
75	0xbd02d0f0	-0.03193754
76	0x3c201d60	0.009772629
77	0x3b914c5f	0.004434153
78	0x3cdfd087	0.027321113
79	0xbd00c6cb	-0.031439584
80	0xbccc00ae	-0.024902668
81	0xbcb232a9	-0.021752672
82	0x3ca30a72	0.019902442
83	0x3c8e3ac0	0.017361999
84	0x3bd8ca5a	0.006615919
85	0xbd0c3b56	-0.034236275
86	0xbd06b726	-0.032889508
87	0xbc9a0cff	-0.018805025
88	0x3c651264	0.013981435
89	0xbcbffba5	-0.023435423
90	0x3c9b7d48	0.018980637
91	0xba028ad6	-0.00049797946
92	0xbc6a25fa	-0.014291281
93	0xbd75577f	-0.059897896
94	0xbda14e6e	-0.078762874
95	0x3bd4eca5	0.006497937
96	0x3d48ab21	0.048991326
97	0xbc46bc8c	-0.012129914
98	0x3c904fc6	0.017616164
99	0xbcdfb22b	-0.027306637
100	0xbd8da4bd	-0.06916187
101	0xbcaf4ad8	-0.021397993
102	0x3cf3e54a	0.02977242
103	0x3c0de2ed	0.00866006
104	0xbc270f33	-0.010196495
105	0xbd1e4524	-0.038640156
106	0xbc373f81	-0.011184574
107	0xbc816eec	-0.015799962
108	0x3c4ec573	0.012620318
109	0x3c636961	0.013880105
110	0x3aabfe28	0.0013122009
111	0xbba01ba2	-0.0048861066
112	0x3c68494e	0.014177633
113	0x3d0d5c2c	0.03451173
114	0xbd01e453	-0.031711888
115	0x3c213601	0.009839536
116	0x3c8d41d3	0.017243301
117	0x3da133d5	0.07871214
118	0x3d45fbb2	0.04833574
119	0x3daaf883	0.08348181
120	0x3da690bb	0.08133074
121	0x3d1e74ef	0.038685735
122	0x3db9e3fd	0.090766884
123	0x3dbb9a60	0.09160304
124	0x3c91552c	0.017740808
125	0x3d86a855	0.065750755
126	0xbcfc614f	-0.03080812
127	0x3be95318	0.0071205013
128	0xbbb89976	-0.0056335283
129	0xbbd9abe7	-0.006642807
130	0x3d1d284e	0.038368516
131	0x3d6c9bcc	0.057765767
132	0xbdc394c1	-0.09549857
133	0xbd74c478	-0.05975768
134	0xbd478e2e	-0.048719577
135	0x3b4c23bd	0.0031149231
136	0x3d16f300	0.036852837
137	0x3bc65293	0.006052324
138	0x3cfea62b	0.031085094
139	0x3cc4edb0	0.02403912
140	0xba85bd2f	-0.0010203476
141	0xbbea6956	-0.0071536703
142	0xbcf0fc1a	-0.029417086
143	0x3d0fc3f7	0.035098996
144	0x3d3f143f	0.046650168
145	0x3e0e4eb1	0.13897206
146	0x3e24346e	0.16035625
147	0x3dbd5b14	0.092458874
148	0x3ddb0f9a	0.10696335
149	0x3df78927	0.120867066
150	0x3d82e916	0.06392114
151	0x3dde2860	0.10847545
152	0xba96c4e6	-0.0011502772
153	0xbd4c6ff6	-0.04991146
154	0xbdc1448f	-0.09436905
155	0x3d018358	0.0316194
156	0xbc39310f	-0.0113032
157	0xbdb01263	-0.08597257
158	0xbcadb487	-0.021204246
159	0x3c958eb4	0.018256523
160	0xbd970648	-0.07374245
161	0xbdc410f6	-0.095735475
162	0xbd3b5fdc	-0.045745715
163	0x3b89aa1d	0.0042011873
164	0x3d4e737c	0.050403103
165	0xbcc67fed	-0.024230922
166	0x3c8f5b57	0.017499609
167	0x3d0acf3c	0.03388904
168	0x3b92e54e	0.0044829017
169	0x3b7a39fe	0.0038181539
170	0xbccd4799	-0.025058554
171	0x3d2bb0b9	0.041916583
172	0x3d12b380	0.035815716
173	0x3d9f4e48	0.07778603
174	0x3d86df90	0.0658561
175	0x3df300c9	0.11865384
176	0x3e4759a6	0.19467792
177	0x3e0c8dab	0.13725917
178	0xbc0bec3a	-0.0085402075
179	0x3dcc37e5	0.099715985
180	0x3d58390e	0.052788787
181	0x3d803d24	0.06261662
182	0x3d1825a4	0.037145272
183	0x3a499216	0.000768931
184	0x3df215f8	0.118205965
185	0x3c16d22c	0.009205382
186	0x3db90696	0.09034459
187	0xbdccf317	-0.10007303
188	0xbce5ebd4	-0.028066553
189	0x3caf59b1	0.021405073
190	0xbd9a2c09	-0.0752793
191	0xbd44a9d5	-0.048013527
192	0xbc2a8e2b	-0.010409872
193	0x3d08b3d6	0.03337463
194	0x3d143fb6	0.036193572
195	0x3c54001b	0.012939478
196	0x3c2410a8	0.010013737
197	0x3aa08fa5	0.0012249841
198	0x3ca9e93d	0.0207411
199	0x3d434458	0.0476726
200	0x3d87fa4f	0.066395395
201	0x3a99a9b1	0.0011723546
202	0x3ce17bdf	0.027524887
203	0x3c8aacc1	0.016928079
204	0xbcce98be	-0.025219318
205	0x3a5ffc12	0.00085443363
206	0xbb206641	-0.002447501
207	0xbd2ca4c4	-0.04214932
208	0x3ced20fe	0.028946396
209	0x3d1c91a0	0.038224816
210	0xbc44e69a	-0.01201787
211	0xbbeb8ca4	-0.0071883965
212	0xbbe64d34	-0.0070282463
213	0x3da5d831	0.08097876
214	0xbd7be70d	-0.061499644
215	0x3d64f86f	0.055900987
216	0x3c96b765	0.018397996
217	0xbcb0c218	-0.021576926
218	0xbd568aba	-0.052378394
219	0xbddb028f	-0.106938474
220	0xbddf259c	-0.10895845
221	0xbc8a3508	-0.01687099
222	0xbbe138af	-0.0068732123
223	0x373c2b54	1.1215761e-05
224	0xbce2ee78	-0.027701601
225	0x3ab4c1e1	0.001379069
226	0x3bfddc30	0.0077471957
227	0x3d4093a6	0.04701581
228	0x3ddb790a	0.10716446
229	0x3c04fbcd	0.008116675
230	0x3d4784cc	0.04871063
231	0x39cb6518	0.00038794498
232	0xbcc7f2dc	-0.024407797
233	0x3c7ebe87	0.015548355
234	0x3bb410c2	0.0054951617
235	0x3d6f703d	0.05845665
236	0x3bbcca0b	0.00576139
237	0xbd3f596a	-0.04671613
238	0xbbcc3702	-0.0062321434
239	0xbc2ae6af	-0.010430976
240	0xbda0d574	-0.07853213
241	0xbc697942	-0.0142501015
242	0x3c857a75	0.016293744
243	0xbc42baca	-0.011885354
244	0xbcc9aba2	-0.024617974
245	0xbc01bc3b	-0.007918413
246	0x3c41ca19	0.011827969
247	0xbe09600a	-0.13415542
248	0xbdb559a7	-0.088549905
249	0xbd379bc4	-0.044826284
250	0xbd089e28	-0.033353955
251	0xbc7c10f4	-0.015384901
252	0xbcccd467	-0.025003625
253	0x3d1b8535	0.037968833
254	0x3d2e6ed4	0.042586163
255	0x3de636b8	0.112409055

module.1.bias f4 [30]
0	0x3eae8e90	0.34093142
1	0x3e30ead3	0.17277078
2	0x3de13b9a	0.10997696
3	0x3e191eda	0.14953175
4	0x3f7c4294	0.9853909
5	0x3d8d142c	0.06888613
6	0x3eb0cd77	0.34531757
7	0xbf020850	-0.50793934
8	0xbe985609	-0.2975314
9	0xbec525d8	-0.38505435
10	0xbea564b6	-0.323034
11	0x3f2c058b	0.6719596
12	0x3ef3884a	0.47564918
13	0x3e5fd1ba	0.21857348
14	0xbe9730d3	-0.29529437
15	0x3f8aebad	1.0853173
16	0x3d73bd49	0.05950669
17	0x3e671b84	0.2256909
18	0xbd9de166	-0.07709007
19	0x3eb9da13	0.3629919
20	0xbcd58067	-0.026062204
21	0xbcc7e61e	-0.02440172
22	0xbf196c7c	-0.5993116
23	0xbf0bc77d	-0.5460127
24	0xbf3719e0	-0.7152386
25	0x3eb19167	0.34681246
26	0x3e47b31b	0.19501917
27	0xbe82eb50	-0.25570154
28	0xbf101cc4	-0.5629389
29	0x3e805467	0.25064394

module.4.weight f4 [10, 30]
0	0xbf795a4a	-0.97403395
1	0xbf5e7cce	-0.86909187
2	0x3ed13094	0.40857375
3	0x3f53bbba	0.82708323
4	0x3f349257	0.70535797
5	0xbf3229e6	-0.6959518
6	0xbf114eb4	-0.56760716
7	0xbf845daa	-1.0341084
8	0xbf8116e7	-1.0085114
9	0x3f0838bb	0.53211564
10	0x3e1c14f4	0.15242368
11	0x3f018920	0.5059986
12	0xbf39a035	-0.7251008
13	0xbed209d3	-0.4102312
14	0xbe29c0c6	-0.16577443
15	0xbeef6e45	-0.46763816
16	0xbf23ad4c	-0.63936305
17	0x3f8d1409	1.1021739
18	0xbf6e0a3e	-0.9298438
19	0xbf3ad220	-0.72976875
20	0xbea921ac	-0.33033502
21	0x3e085bda	0.13316289
22	0x3f4cb36c	0.79961276
23	0xbf0dcee9	-0.55393845
24	0xbf156fa3	-0.5837347
25	0xbeabd65d	-0.33561984
26	0xbf313de4	-0.6923506
27	0xbf3c354b	-0.7351882
28	0x3f13cb37	0.57731956
29	0x3f2b9226	0.6701988
30	0xbed7e6f7	-0.421684
31	0xbf2f0c39	-0.68378025
32	0xbf81a2b6	-1.012778
33	0xbf30d18e	-0.69069755
34	0xbeaa4af5	-0.33260313
35	0xbee8feeb	-0.45506987
36	0xbf27388b	-0.6532065
37	0xbe675c66	-0.22593841
38	0x3f098455	0.5371755
39	0xbf30e616	-0.69101083
40	0xbf48d10c	-0.7844398
41	0xbf021d06	-0.50825536
42	0x3f5349d8	0.8253455
43	0x3f3ad28c	0.7297752
44	0xbe084770	-0.13308501
45	0x3f66f163	0.90212077
46	0x3f41ddad	0.75728875
47	0xbeb21f2c	-0.34789407
48	0x3f251a93	0.64493674
49	0x3f45eabb	0.77311295
50	0x3f65e67a	0.89804804
51	0x3dff325e	0.12460779
52	0xbf10812e	-0.5644711
53	0x3f25568c	0.64585185
54	0x3eec1c3a	0.46115285
55	0xbf32fa1f	-0.69912905
56	0xbc93ce5e	-0.01804274
57	0x3f4e104b	0.8049361
58	0xbf0f12f3	-0.5588829
59	0xbf1b7d7a	-0.6073834
60	0xbeb9d353	-0.3629404
61	0xbeab71ab	-0.3348516
62	0x3ef39740	0.47576332
63	0x3f321622	0.6956502
64	0x3ec3d99d	0.38251963
65	0x3ee86c50	0.45395136
66	0x3e2452e5	0.16047247
67	0xbf42c60f	-0.76083463
68	0xbe20e4b5	-0.15712245
69	0x3ecc2da7	0.3987858
70	0xbe69135b	-0.2276129
71	0x3edd2101	0.43189242
72	0x3f81e0a8	1.0146685
73	0x3f1ca77d	0.61193067
74	0x3ed8735f	0.4227552
75	0xbf01e464	-0.5073912
76	0x3f42bab1	0.7606612
77	0xbe67fddd	-0.22655435
78	0x3f482bf8	0.7819209
79	0xbf0b63c3	-0.544491
80	0xbdec74bf	-0.11545705
81	0xbe1f3196	-0.1554626
82	0x3eaa271a	0.33232957
83	0x3f5eb496	0.869943
84	0x3f140654	0.57822156
85	0x3e7fac82	0.2496815
86	0x3f671242	0.90262234
87	0xbc871dbb	-0.016493669
88	0x3ed3e228	0.4138348
89	0x3f45ce86	0.77268255
90	0x3f29e6c5	0.6636775
91	0x3e99d0cf	0.3004212
92	0xbeb666de	-0.35625356
93	0xbf0853d8	-0.53252935
94	0x3eff9fee	0.49926704
95	0x3ed5fef4	0.41796076
96	0xbe79f7b4	-0.24410897
97	0x3f4ab0e8	0.7917619
98	0xbeb1284f	-0.34601066
99	0x3ee0beef	0.4389567
100	0x3f8e43bf	1.1114424
101	0x3edb2f42	0.42809492
102	0x3f750ec0	0.9572563
103	0xbf0b12b5	-0.5432542
104	0xbe988f26	-0.29796714
105	0xbe8767f1	-0.26446488
106	0x3f55aca7	0.8346657
107	0xbedf590d	-0.43622628
108	0x3ec920de	0.39282888
109	0xbf3116b2	-0.69175255
110	0x3f5d28e6	0.8639053
111	0x3e2e81c8	0.17041695
112	0xbef1daf2	-0.47237355
113	0x3f45152a	0.7698542
114	0x3efe50d9	0.49671057
115	0xbd9c2d2c	-0.07625803
116	0xbccec1cc	-0.025238894
117	0x3f1512cf	0.58231825
118	0x3f07f5e8	0.531096
119	0x3f2e7641	0.6814919
120	0x3f3a3e23	0.72751063
121	0x3f10262f	0.56308264
122	0x3ef6640e	0.4812321
123	0x3f638c1e	0.88885677
124	0xbf877b27	-1.0584458
125	0x3ee9fc17	0.45700142
126	0x3f4209cd	0.75796205
127	0x3e9e025f	0.30861184
128	0x3f1e51ab	0.61843365
129	0xbf8c2b91	-1.0950795
130	0xbf30de10	-0.6908884
131	0x3ec245f7	0.37944004
132	0xbf2156e7	-0.6302323
133	0xbd34ea83	-0.04416896
134	0x3eeaeece	0.4588532
135	0xbf37a46f	-0.7173528
136	0xbeb29d59	-0.34885672
137	0xbef468c5	-0.47736183
138	0xbf535a58	-0.8255973
139	0xbefc4b9c	-0.49276435
140	0x3e16ed11	0.14738871
141	0x3e38d3d2	0.18049553
142	0xbe8eb677	-0.27873585
143	0xbf76e3cf	-0.9644136
144	0xbf5429b8	-0.8287616
145	0x3f31f246	0.69510305
146	0xbe020024	-0.12695366
147	0x3f3e6701	0.7437592
148	0xbf6d5cbb	-0.9271962
149	0xbefdf6e6	-0.4960243
150	0x3d898790	0.067153096
151	0x3ee546ab	0.44780478
152	0xbe699be9	-0.22813381
153	0xbe9c01ff	-0.30470273
154	0x3f18cf66	0.59691465
155	0x3edcb7f4	0.43109095
156	0xbeff6b42	-0.4988652
157	0x3f51ba58	0.81924963
158	0xbe1aa443	-0.15101723
159	0x3ea924cf	0.33035895
160	0x3f966f0a	1.1752636
161	0x3ee0553f	0.43815038
162	0xbec053e7	-0.37564012
163	0xbe723ab6	-0.23655209
164	0x3eb721a6	0.3576786
165	0x3f689eea	0.90867484
166	0xbe869f1a	-0.2629326
167	0xbd1556bf	-0.03645968
168	0x3d091343	0.033465635
169	0x3f8cdf9f	1.1005744
170	0xbee79e59	-0.45237997
171	0xbd832b1d	-0.064047076
172	0x3ea55f36	0.32299203
173	0xbeb317c3	-0.34979066
174	0xbf4f80a0	-0.8105564
175	0xbf03d4c4	-0.5149653
176	0xbdf91618	-0.12162417
177	0xbf278ec8	-0.6545224
178	0x3f082796	0.53185403
179	0xbe3da7b2	-0.18521002
180	0xbf7d7b6c	-0.9901645
181	0xbf85a237	-1.0440129
182	0x3f0b3078	0.5437083
183	0xbe93875d	-0.2881421
184	0xbcfe193c	-0.031017892
185	0x3f008f9d	0.50219136
186	0xbf2159af	-0.6302747
187	0xbf5d60bb	-0.86475724
188	0xbf1cfd51	-0.6132403
189	0xbf428485	-0.7598346
190	0xbef941de	-0.48683065
191	0x3f0963eb	0.5366809
192	0xbf2131e9	-0.6296678
193	0x3f5c371a	0.8602158
194	0x3f191b80	0.59807587
195	0xbf0b1331	-0.5432616
196	0xbf1d69f7	-0.61489815
197	0x3ea20292	0.31642586
198	0xbf10a3e5	-0.56500083
199	0x3f85b5aa	1.0446064
200	0xbd13c890	-0.036079943
201	0x3e364c9a	0.17802659
202	0x3f3354c4	0.7005122
203	0xbf1cef11	-0.61302286
204	0xbf3ac945	-0.7296336
205	0x3f20b0db	0.6276986
206	0x3f5013c3	0.81280154
207	0xbf27ffec	-0.6562488
208	0xbe24ef18	-0.16106832
209	0xbf5b9739	-0.8577762
210	0x3f47e9fa	0.78091395
211	0x3f0d0276	0.5508188
212	0xbed7cb35	-0.42147222
213	0xbecff915	-0.40619722
214	0x3f15f680	0.58579254
215	0xbf40f0c4	-0.7536738
216	0x3f5f871d	0.8731554
217	0xbf4ce5c0	-0.8003807
218	0xbe884e32	-0.26622158
219	0x3ecffa9d	0.4062089
220	0xbf7930fe	-0.9734038
221	0xbf2d1e62	-0.67624485
222	0x3f5a2a3d	0.852207
223	0xbe263e5e	-0.16234729
224	0xbf45106d	-0.7697819
225	0x3f7e8008	0.9941411
226	0xbea98798	-0.33111262
227	0x3f8fa95c	1.1223559
228	0x3f233dfd	0.6376646
229	0xbf67d142	-0.9055368
230	0xbe025aa0	-0.12729883
231	0xbc4f8a14	-0.012667198
232	0xbf2bc7c9	-0.6710172
233	0x3f402ac5	0.7506526
234	0x3ed730fe	0.42029566
235	0x3f4046e4	0.7510817
236	0xbe81feef	-0.2538981
237	0x3d9b5eb8	0.075864255
238	0xbf3ab209	-0.7292791
239	0x3f2e7600	0.68148804
240	0xbf4fc9e2	-0.81167424
241	0x3ef174bb	0.4715937
242	0xbe4c83b1	-0.19972111
243	0xbe75cd35	-0.24004062
244	0xbf1d2163	-0.6137907
245	0x3ebe1da3	0.37131986
246	0xbf2efe60	-0.68356895
247	0x3ee5e4c6	0.44901103
248	0x3f0f8ab1	0.56071
249	0x3ed6e614	0.4197241
250	0x3e791fe4	0.24328572
251	0x3d930a15	0.07179657
252	0xbead1e43	-0.3381215
253	0xbe29a907	-0.16568385
254	0x3ef9f90c	0.4882282
255	0xbd97750a	-0.0739537

module.4.bias f4 [10]
0	0x3e61e69c	0.22060627
1	0x3f3d3ba2	0.7391912
2	0xbfb24acf	-1.392908
3	0xbf80a813	-1.0051292
4	0x3d9d3d1c	0.07677671
5	0x3ef2603c	0.47339046
6	0x3eb8099d	0.35944834
7	0xbec9b751	-0.39397672
8	0x3efa6b03	0.48909768
9	0x3f4bdfcf	0.7963838
